…
":"2023-12-06T14:16:45.260846Z","shell.execute_reply.started":"2023-12-06T14:16:45.194160Z","shell.execute_reply":"2023-12-06T14:16:45.259628Z"},"trusted":true},"execution_count":48,"outputs":[{"name":"stdout","text":"Model: \"vgg16\"\n_________________________________________________________________\n Layer (type)                Output Shape              Param #   \n=================================================================\n input_9 (InputLayer)        [(None, 224, 224, 3)]     0         \n                                                                 \n block1_conv1 (Conv2D)       (None, 224, 224, 64)      1792      \n                                                                 \n block1_conv2 (Conv2D)       (None, 224, 224, 64)      36928     \n                                                                 \n block1_pool (MaxPooling2D)  (None, 112, 112, 64)      0         \n                                                                 \n block2_conv1 (Conv2D)       (None, 112, 112, 128)     73856     \n                                                                 \n block2_conv2 (Conv2D)       (None, 112, 112, 128)     147584    \n                                                                 \n block2_pool (MaxPooling2D)  (None, 56, 56, 128)       0         \n                                                                 \n block3_conv1 (Conv2D)       (None, 56, 56, 256)       295168    \n                                                                 \n block3_conv2 (Conv2D)       (None, 56, 56, 256)       590080    \n                                                                 \n block3_conv3 (Conv2D)       (None, 56, 56, 256)       590080    \n                                                                 \n block3_pool (MaxPooling2D)  (None, 28, 28, 256)       0         \n                                                                 \n block4_conv1 (Conv2D)       (None, 28, 28, 512)       1180160   \n                                                                 \n block4_conv2 (Conv2D)       (None, 28, 28, 512)       2359808   \n                                                                 \n block4_conv3 (Conv2D)       (None, 28, 28, 512)       2359808   \n                                                                 \n block4_pool (MaxPooling2D)  (None, 14, 14, 512)       0         \n                                                                 \n block5_conv1 (Conv2D)       (None, 14, 14, 512)       2359808   \n                                                                 \n block5_conv2 (Conv2D)       (None, 14, 14, 512)       2359808   \n                                                                 \n block5_conv3 (Conv2D)       (None, 14, 14, 512)       2359808   \n                                                                 \n block5_pool (MaxPooling2D)  (None, 7, 7, 512)         0         \n                                                                 \n global_max_pooling2d_4 (Gl  (None, 512)               0         \n obalMaxPooling2D)                                               \n                                                                 \n=================================================================\nTotal params: 14714688 (56.13 MB)\nTrainable params: 14714688 (56.13 MB)\nNon-trainable params: 0 (0.00 Byte)\n_________________________________________________________________\n","output_
…
